d2l/linearregression/lin_reg_model.pth (torch, 24264 bytes, 7 tensors)

input_to_hidden.weight f4 [50, 1]
-0.0031642274 -0.9224668 -0.3122722 -0.6518912 1.0028875 0.24610735 0.5302344 0.3081875
-0.3299443 -0.13494065 -0.41327026 0.9621667 -0.7595882 -0.023496002 0.27876803 0.30342796
0.16119812 0.6957349 -0.027070522 0.7214165 -0.520549 0.3120211 0.5079871 0.06049034
-0.14740454 1.005068 0.95736057 0.6628723 0.08464281 0.5630019 0.5782752 -0.7396242
0.17911418 -0.34582326 0.46825776 -0.9891047 -0.5031494 -0.4752323 -0.24752773 -0.4644005
-0.36511078 -0.11398607 0.56077534 -0.9234555 -0.53463477 -0.30129465 0.9115567 0.4642306
0.11411675 -0.5397452
00000000: ed5e 4fbb c926 6cbf 24e2 9fbe 57e2 26bf
00000010: 9e5e 803f 9103 7c3e 71bd 073f c1ca 9d3e
00000020: 76ee a8be e22d 0abe 2998 d3be 8f50 763f
00000030: 5f74 42bf b07a c0bc afba 8e3e e95a 9b3e
00000040: 1f11 253e af1b 323f 00c3 ddbc c0ae 383f
00000050: b342 05bf 3bc1 9f3e 710b 023f b8c4 773d
00000060: 37f1 16be 11a6 803f 9515 753f 00b2 293f
00000070: 3659 ad3d e420 103f d809 143f 0358 3dbf
00000080: b569 373e bf0f b1be 7bbf ef3e f735 7dbf
00000090: 66ce 00bf a651 f3be e977 7dbe e7c5 edbe
000000a0: cdef babe 8771 e9bd f98e 0f3f 9467 6cbf
000000b0: d3dd 08bf 4b43 9abe c85b 693f a2af ed3e
000000c0: 0bb6 e93d be2c 0abf

input_to_hidden.bias f4 [50]
-0.23181994 0.012777777 -0.32294592 0.15202731 0.017088737 -0.061176877 0.4817351 -0.6042059
0.2936226 -0.61217785 0.47138977 0.44523484 0.24093227 0.9059201 0.33022588 0.74418145
0.7610543 -0.3554929 -0.79269874 0.49447542 -0.561123 0.48688492 0.67657816 -0.43663386
0.7912923 -0.01395799 0.07309025 0.41750726 -0.022922922 0.6549839 -0.45218804 -0.16344902
0.71729 0.22315922 0.32703325 -0.9762118 0.022838553 -0.45888767 0.28600368 0.91817456
0.88074696 -0.3152079 -0.68632495 0.2862619 0.62072814 0.6830267 -0.47608593 0.2937372
-0.48889077 -0.31070057
00000000: 3562 6dbe e259 513c 2b59 a5be 0cad 1b3e
00000010: aefd 8b3c 9b94 7abd fca5 f63e 3dad 1abf
00000020: b455 963e b0b7 1cbf 005a f13e d2f5 e33e
00000030: f3b6 763e 61ea 673f 5e13 a93e ad82 3e3f
00000040: 74d4 423f 2a03 b6be 4eee 4abf e22b fd3e
00000050: c2a5 0fbf fb48 f93e 3a34 2d3f 798e dfbe
00000060: 2292 4a3f 0eb0 64bc 57b0 953d 83c3 d53e
00000070: dac8 bbbc 06ad 273f 3185 e7be 2e5f 27be
00000080: 51a0 373f da83 643e e770 a73e 04e9 79bf
00000090: eb17 bb3c 53f3 eabe 136f 923e 7d0d 6b3f
000000a0: a278 613f ee62 a1be feb2 2fbf eb90 923e
000000b0: 0ae8 1e3f d6da 2e3f 89c1 f3be b964 963e
000000c0: e44f fabe 2514 9fbe

hidden_layer_1.weight f4 [50, 50]
-0.02754656 0.010867713 0.02243948 0.10684396 -0.12007076 -0.037435442 -0.005828141 0.12216666
-0.04681649 -0.056116726 0.0021781926 0.06047971 0.095534444 -0.077164285 0.1273256 0.11247391
0.07393629 0.020544328 -0.106230475 -0.05663227 0.09368099 -0.0858592 0.052906264 -0.043360066
0.092404835 -0.04810515 0.031224107 0.048028428 -0.030056681 -0.034453843 0.03479921 0.13265358
-0.05117829 0.101825446 0.13511547 -0.07844085 -0.08094475 0.0063088993 0.062122934 -0.05423464
0.08651916 -0.05668734 0.102701046 -0.06990357 -0.05716435 -0.035300124 -0.07684482 -0.021645673
0.034441035 -0.08712589 0.09827179 0.11993712 0.047172878 0.06421757 -0.11570236 -0.019232718
-0.022284089 -0.116040625 -0.06036076 0.08560114 0.07291194 -0.043856427 0.018975325 0.13883954
-0.097831 -0.08399297 0.044082765 0.06416172 0.090181164 0.023543822 0.00037430847 -0.10565416
0.055626933 0.017332433 0.0029582405 -0.15211858 -0.11442265 0.06830644 0.09177248 0.09731803
-0.07725892 0.06877622 -0.011471317 0.113841414 0.064612895 0.054826673 -0.02980574 -0.1233825
0.10429016 -0.015672546 0.075066924 0.12323501 -0.034963723 0.13691743 0.07431101 -0.058932677
-0.15672621 0.09812807 -0.0683155 0.13501392 0.0074177785 0.13745265 -0.083612055 0.1255795
-0.03954705 -0.0792388 -0.10175212 0.014984026 -0.10002122 0.08398762 -0.12577392 0.10869475
0.06485827 0.0104541285 0.038916223 -0.05643867 -0.041179623 -0.08503055 -0.047675405 -0.064714
-0.053165317 0.12848593 0.0619385 0.010958836 -0.123366915 -0.03945415 0.034956705 0.07773279
1.8403594e-05 0.11316147 0.008854379 -0.090191044 -0.08614331 0.03879715 0.10703203 -0.07496523
-0.12422879 0.13850793 0.1078246 -0.074184015 -0.12757614 0.03254184 -0.069874756 -0.1200385
0.002138171 0.0933286 -0.01306807 0.020531079 0.0044974843 -0.059162717 0.072925255 -0.04948032
-0.13034427 -0.032749068 0.10383189 0.0123994555 0.023585936 -0.08836195 0.10060255 0.12716034
0.01250828 -0.1417209 -0.015074769 -0.012411824 0.02740601 -0.043107282 0.037739865 0.11462459
-0.030780677 0.019474847 -0.03347682 -0.121564515 -0.020327508 -0.11107071 0.0016113892 0.09339842
-0.08968013 -0.10081215 0.091062285 -0.09409677 0.0072504915 0.11205974 -0.051400308 -0.051356465
-0.12551463 0.053627476 -0.12146206 0.13154338 -0.12751669 -0.051293746 -0.07234418 -0.10488963
-0.08287097 0.057204828 -0.06595411 0.13411789 -0.100888476 -0.10551533 -0.101589195 -0.027604641
-0.026715167 0.09296755 -0.094240434 0.10382505 -0.017667452 0.04865466 0.115667515 0.028045632
0.03358066 0.08018809 -0.12925524 0.0023735566 0.08027607 0.1357784 0.091186784 -0.014395681
0.079019435 -0.047843046 0.012836035 0.1219958 0.14107485 -0.025391497 -0.04674478 -0.10174598
-0.06286686 -0.12784779 0.049107432 0.12638307 -0.03847876 0.10660238 0.0405868 -0.06972011
-0.09666012 -0.07361482 -0.11191911 0.024646675 -0.10498535 -0.05638129 -0.091180004 -0.12725045
-0.09972566 -0.022352424 -0.06138565 -0.020193737 0.13007599 -0.08180124 -0.10473007 0.041323915
0.081433445 -0.05375615 -0.034401253 -0.10386334 0.007685141 0.109994404 -0.07193744 -0.10533574
00000000: 53a9 e1bc 7e0e 323c 00d3 b73c 02d1 da3d
00000010: a9e7 f5bd e855 19bd fdf9 bebb 8432 fa3d
00000020: a6c2 3fbd a7da 65bd 02c0 0e3b 93b9 773d
00000030: 90a7 c33d 4f08 9ebd a461 023e b958 e63d
00000040: e96b 973d 944c a83c 5d8f d9bd 3df7 67bd
00000050: d2db bf3d f3d6 afbd 3db4 583d 539a 31bd
00000060: bf3e bd3d e809 45bd b3c9 ff3c 75b9 443d
00000070: 6e39 f6bc 791f 0dbd 9e89 0e3d 57d6 073e
00000080: 54a0 51bd dc89 d03d b65b 0a3e 99a5 a0bd
00000090: 5cc6 a5bd e2ba ce3b 9e74 7e3d 2425 5ebd
000000a0: f530 b13d fc30 68bd ed54 d23d 9a29 8fbd
000000b0: 2a25 6abd dd96 10bd d160 9dbd 4452 b1bc
000000c0: 0b12 0d3d 0f6f b2bd b842 c93d 98a1 f53d
000000d0: 5938 413d 8084 833d 5cf5 ecbd ef8d 9dbc
000000e0: 1f8d b6bc b5a6 edbd d83c 77bd a74f af3d
000000f0: db52 953d cca2 33bd 2472 9b3c f42b 0e3e
00000100: 9f5b c8bd 8204 acbd 2190 343d 3867 833d
00000110: e7b0 b83d f9de c03c d53e c439 3561 d8bd
00000120: 11d9 633d bffc 8d3c 0adf 413b f9c4 1bbe
00000130: 6c56 eabd 3fe4 8b3d 36f3 bb3d ad4e c73d
00000140: ed39 9ebd 8cda 8c3d 31f2 3bbc b025 e93d
00000150: c453 843d ef91 603d 2b2b f4bc f7af fcbd
00000160: 1496 d53d b663 80bc b0bc 993d a362 fc3d
00000170: 1f36 0fbd 1534 0c3e 5f30 983d 6463 71bd
00000180: d67c 20be 5ff7 c83d ffe8 8bbd 1741 0a3e
00000190: d610 f33b 63c0 0c3e cc3c abbd ea97 003e
000001a0: 16fc 21bd f447 a2bd 6a63 d0bd 8f7f 753c
000001b0: edd7 ccbd b401 ac3d e1ca 00be 5a9b de3d
000001c0: 6ad4 843d cb47 2b3c 9e66 1f3d 3c2c 67bd
000001d0: f7ab 28bd 7f24 aebd 4947 43bd c688 84bd
000001e0: e0c3 59bd d191 033e 39b3 7d3d b18c 333c
000001f0: cba7 fcbd ad9a 21bd c32e 0f3d 5e32 9f3d
00000200: 6b61 9a37 33c1 e73d f511 113c 15b6 b8bd
00000210: e76b b0bd c3e9 1e3d 9c33 db3d 5f87 99bd
00000220: aa6b febd 06d5 0d3e 25d3 dc3d caed 97bd
00000230: 52a3 02be 984a 053d 7f1a 8fbd bfd6 f5bd
00000240: 8f20 0c3b 1123 bf3d 751b 56bc cb30 a83c
00000250: a25f 933b 9b54 72bd d659 953d e0ab 4abd
00000260: f878 05be e323 06bd d0a5 d43d 1627 4b3c
00000270: 4b37 c13c 1cf7 b4bd b608 ce3d 5236 023e
00000280: 87ef 4c3c 491f 11be 2afc 76bc f75a 4bbc
00000290: 9282 e03c 4391 30bd 1e95 1a3d 4cc0 ea3d
000002a0: c227 fcbc b789 9f3c fd1e 09bd d1f6 f8bd
000002b0: e085 a6bc 0a79 e3bd 4035 d33a ac47 bf3d
000002c0: 37aa b7bd 9a76 cebd dd7e ba3d cfb5 c0bd
000002d0: 8895 ed3b 947f e53d 2189 52bd 285b 52bd
000002e0: e886 00be 7ca8 5b3d 1ac1 f8bd 4fb3 063e
000002f0: bc93 02be 6419 52bd 2f29 94bd 60d0 d6bd
00000300: 41b8 a9bd 9c4f 6a3d f312 87bd 3356 093e
00000310: 9e9e cebd 6c18 d8bd ff0d d0bd 2123 e2bc
00000320: c4d9 dabc c565 be3d 2101 c1bd 3aa2 d43d
00000330: 55bb 90bc 1c4a 473d 17e3 ec3d f4bf e53c
00000340: e08b 093d a739 a43d 7c5b 04be ac8d 1b3b
00000350: c867 a43d 7e09 0b3e 23c0 ba3d dddb 6bbc
00000360: f1d4 a13d 12f7 43bd 3c4e 523c efd8 f93d
00000370: ed75 103e d401 d0bc 7477 3fbd 3260 d0bd
00000380: 57c0 80bd 88ea 02be e024 493d 906a 013e
00000390: e79b 1dbd 5952 da3d 583e 263d 6bc9 8ebd
000003a0: bef5 c5bd 5ec3 96bd d935 e5bd d3e7 c93c
000003b0: 8f02 d7bd 11f0 66bd 95bc babd f14d 02be
000003c0: f83c ccbd 6e1c b7bc 856f 7bbd 566d a5bc
000003d0: a432 053e 6987 a7bd b87c d6bd 4443 293d
000003e0: 94c6 a63d 692f 5cbd 54e8 0cbd 4eb6 d4bd
000003f0: a3d3 fb3b bf44 e13d f053 93bd 44ba d7bd

hidden_layer_1.bias f4 [50]
-0.058868386 0.00952454 -0.12420259 0.07632325 0.013795125 0.05689771 -0.110521704 -0.025741234
0.11949681 0.040204357 0.097764894 -0.117410675 0.007556225 0.07406486 -0.08514238 0.13916521
-0.10310293 -0.1421727 -0.075444594 0.008467209 -0.013676019 -0.11897338 0.07807706 -0.06516804
0.10937386 0.13376641 0.043597303 0.05569255 0.07894681 -0.03915108 0.012614712 -0.13063566
0.06476078 0.08472484 0.052071996 0.086564414 -0.0032297391 -0.14657703 -0.047292568 0.08303823
0.079361856 -0.096886136 -0.095621385 -0.031059265 0.08102466 -0.047946077 0.12364476 -0.116349205
-0.05738608 -0.038914442
00000000: fa1f 71bd d10c 1c3c ed5d febd 5d4f 9c3d
00000010: f304 623c 930d 693d 3459 e2bd 48df d2bc
00000020: beba f43d 53ad 243d f638 c83d 0275 f0bd
00000030: 369a f73b 51af 973d 215f aebd 5381 0e3e
00000040: a127 d3bd b895 11be b282 9abd 0cba 0a3c
00000050: 6211 60bc 51a8 f3bd dee6 9f3d d276 85bd
00000060: 67ff df3d 10fa 083e 1693 323d df1d 643d
00000070: ddae a13d e25c 20bd f0ad 4e3c 5bc5 05be
00000080: 4da1 843d 3884 ad3d 7249 553d af48 b13d
00000090: 08aa 53bb 4a18 16be dab5 41bd f30f aa3d
000000a0: 7888 a23d 3d6c c6bd 25d5 c3bd 0070 febc
000000b0: 42f0 a53d 1b63 44bd 7739 fd3d 7e48 eebd
000000c0: ab0d 6bbd c064 1fbd

hidden_layer_2.weight f4 [50, 50]
0.022222033 -0.023644967 -0.013585172 -0.01825787 -0.031824123 0.061361045 -0.07447754 -0.031634595
0.09672703 0.13139096 -0.1444957 0.039874103 0.056352742 0.036427166 0.09352362 0.00039642956
0.033643484 0.023375535 -0.06314192 0.046505455 -0.0748744 0.083254054 -0.0775577 0.10561186
0.10477037 0.10079801 -0.0868591 0.06681799 -0.01760829 0.062285684 -0.10944194 -0.013867298
-0.032664638 0.03728393 0.124928825 0.05893029 0.041904893 0.009984121 -0.05495042 -0.02720887
-0.06462992 -0.077164054 -0.059823487 -0.09909815 0.013153353 -0.011419579 -0.13286011 -0.0042163483
0.042531207 -0.12082595 -0.0084662 0.08107778 -0.04621642 -0.0039467695 0.08923934 -0.12471724
0.07141718 0.13696201 0.08853482 0.058825623 0.12272299 0.114074215 0.01249069 -0.051485706
0.12680987 0.07691992 0.09927606 0.0015594194 0.0027766062 -0.017422808 0.03576996 -0.08890743
0.0367555 -0.0521517 -0.13082753 0.046279524 -0.13110349 0.031198561 0.1268837 -0.14938354
0.0467849 0.13027126 -0.11315733 -0.05968354 -0.11567406 -0.07830659 -0.025609223 0.044566907
0.09583913 0.12856497 0.07277732 -0.07010228 -0.10949603 0.12569372 0.09831813 -0.055471525
-0.11787555 -0.13005346 0.08057829 -0.07941281 0.13464679 0.0028517104 -0.05917666 -0.04694299
0.036879472 0.050223716 0.04062052 -0.059172254 -0.013612367 -0.013118382 -0.03643462 -0.08566503
-0.090241 0.048975706 0.13019955 0.058642827 -0.10518714 0.11544469 0.08983472 -0.014323013
-0.08561153 0.004356258 -0.10869653 0.10231906 0.095433295 -0.026825165 -0.006730688 -0.1267098
0.061577555 -0.058150217 -0.092505075 0.04977167 0.056517847 0.014638072 0.012256635 0.042899083
-0.076770045 0.1336503 -0.06511534 0.07278559 -0.05914111 0.065838434 -0.11185486 0.05472145
0.055653058 -0.091596395 0.091391146 -0.12861939 0.053768612 -0.08755944 0.123360366 0.073057584
-0.038025167 0.0198621 0.013344922 0.08545558 -0.025657594 -0.078308694 0.11436323 -0.140925
0.12093374 -0.110051244 -0.054488547 -0.032849424 0.033624634 0.11138471 0.13420786 -0.11733593
-0.089452386 -0.10614867 0.05712833 0.09404502 -0.12454079 -0.051882602 0.12975359 0.12924595
0.040002774 0.07348952 -0.068318084 0.07956962 -0.107869454 0.00034451514 0.019215865 0.08958193
0.008263649 -0.06973321 0.12279713 0.08111173 -0.12908767 -0.051657345 -0.030214204 0.07957424
-0.022724442 -0.025528468 0.11262916 0.04551212 0.08706698 0.1332566 -0.13795924 -0.016611163
0.005654722 0.10460481 0.03101929 -0.05505077 0.09027884 0.046364006 -0.08051282 0.11148943
-0.006734429 -0.1034199 0.1217637 0.07896392 -0.061401337 0.13819899 0.014543145 0.13164976
-0.04296917 -0.12657242 -0.0028181972 0.045843408 -0.09064585 0.07639822 -0.08194061 0.053957667
0.10691305 0.13796543 0.08400317 -0.012973393 -0.049365986 0.085248284 0.12252088 -0.090318836
-0.053116035 0.081406206 -0.09059206 -0.11925644 -0.017229382 0.008284399 -0.1426755 0.06749406
-0.111115396 0.11753575 -0.065811485 0.04656699 -0.13218907 -0.1214392 0.010620522 0.085335925
-0.06625754 -0.06587924 -0.06521951 0.11218291 0.06723006 0.033533268 -0.048805434 0.056862105
00000000: fb0a b63c 17b3 c1bc 5794 5ebc 8791 95bc
00000010: 035a 02bd b855 7b3d ae87 98bd 4793 01bd
00000020: d218 c63d 5a8b 063e aef6 13be 0753 233d
00000030: 22d2 663d a734 153d 5089 bf3d e0d7 cf39
00000040: c0cd 093d 0d7e bf3c 8d50 81bd 817c 3e3d
00000050: c057 99bd 1a81 aa3d 92d6 9ebd 084b d83d
00000060: d991 d63d 306f ce3d 2fe3 b1bd dfd7 883d
00000070: 433f 90bc 461f 7f3d 1923 e0bd aa33 63bc
00000080: 5bcb 05bd 09b7 183d afda ff3d e360 713d
00000090: 77a4 2b3d 7094 233c b113 61bd 23e5 debc
000000a0: b15c 84bd 3008 9ebd 7909 75bd f9f3 cabd
000000b0: 2981 573c 3019 3bbc 7b0c 08be 4b29 8abb
000000c0: 3435 2e3d 9873 f7bd d1b5 0abc 1b0c a63d
000000d0: 6e4d 3dbd e753 81bb 1dc3 b63d c16b ffbd
000000e0: 2c43 923d c53f 0c3e be51 b53d 23f3 703d
000000f0: 3156 fb3d be9f e93d c0a5 4c3c ade2 52bd
00000100: 72da 013e 3188 9d3d 3f51 cb3d 6f65 cc3a
00000110: b9f7 353b 47ba 8ebc 8683 123d 1915 b6bd
00000120: ef8c 163d 059d 55bd a7f7 05be 998f 3d3d
00000130: fe3f 06be 2094 ff3c cded 013e 00f8 18be
00000140: 86a1 3f3d d465 053e 08bf e7bd ba76 74bd
00000150: 86e6 ecbd 355f a0bd 6fca d1bc ca8b 363d
00000160: 4e47 c43d 89a6 033e 470c 953d c991 8fbd
00000170: 743f e0bd dbb5 003e 045b c93d 1c36 63bd
00000180: bd68 f1bd bc2c 05be 3b06 a53d 2fa3 a2bd
00000190: d9e0 093e c3e3 3a3b 3a63 72bd 4b47 40bd
000001a0: ee0e 173d 62b7 4d3d b461 263d 9b5e 72bd
000001b0: 6806 5fbc 7bee 56bc 783c 15bd 2671 afbd
000001c0: 46d0 b8bd c09a 483d 0853 053e 7633 703d
000001d0: 5b6c d7bd 446e ec3d 44fb b73d 12ab 6abc
000001e0: 1955 afbd f1be 8e3b 499c debd a88c d13d
000001f0: 8872 c33d 73c0 dbbc 1a8d dcbb 37c0 01be
00000200: bf38 7c3d ec2e 6ebd 4d73 bdbd 61dd 4b3d
00000210: 427f 673d 86d4 6f3c 0ed0 483c f3b6 2f3d
00000220: 9d39 9dbd a0db 083e 315b 85bd 9d10 953d
00000230: f33d 72bd 4dd6 863d 2914 e5bd 9923 603d
00000240: 76f4 633d e496 bbbd 482b bb3d cdb4 03be
00000250: 7a3c 5c3d 5d52 b3bd 5ca4 fc3d 379f 953d
00000260: 47c0 1bbd d8b5 a23c a9a4 5a3c 5603 af3d
00000270: e02f d2bc 4f60 a0bd 4537 ea3d a54e 10be
00000280: 1cac f73d 8c62 e1bd 622f 5fbd 1e8d 06bd
00000290: fcb9 093d ab1d e43d c96d 093e d24d f0bd
000002a0: d032 b7bd 7964 d9bd 65ff 693d ad9a c03d
000002b0: 3e0f ffbd da82 54bd 20de 043e 0d59 043e
000002c0: f3d9 233d ac81 963d 5aea 8bbd 66f5 a23d
000002d0: a9ea dcbd 0aa0 b439 976a 9d3c bb76 b73d
000002e0: 4264 073c 49d0 8ebd 107d fb3d e81d a63d
000002f0: 8f2f 04be a796 53bd c783 f7bc d2f7 a23d
00000300: 9c28 babc 1421 d1bc 1eaa e63d eb6a 3a3d
00000310: 2c50 b23d 6b74 083e 3045 0dbe 2214 88bc
00000320: 3f4b b93b 0c3b d63d 2b1c fe3c eb7c 61bd
00000330: 1de4 b83d 2fe8 3d3d e8e3 a4bd 9254 e43d
00000340: 7cac dcbb d0cd d3bd 3f5f f93d d6b7 a13d
00000350: f87f 7bbd 0984 0d3e 5f46 6e3c 32cf 063e
00000360: 7100 30bd 339c 01be 81b1 38bb 4cc6 3b3d
00000370: 88a4 b9bd ac76 9c3d 7bd0 a7bd b702 5d3d
00000380: 3bf5 da3d cf46 0d3e db09 ac3d 5b8e 54bc
00000390: fd33 4abd a796 ae3d 3aec fa3d 15f9 b8bd
000003a0: 3390 59bd 4cb8 a63d 5488 b9bd b83c f4bd
000003b0: a224 8dbc 4abb 073c 8719 12be 533a 8a3d
000003c0: 7890 e3bd 95b6 f03d 2cc8 86bd 07bd 3e3d
000003d0: 925c 07be 1eb5 f8bd b301 2e3c 9ac4 ae3d
000003e0: 08b2 87bd b2eb 86bd ce91 85bd 27c0 e53d
000003f0: eaaf 893d 2e5a 093d 35e8 47bd 3de8 683d

hidden_layer_2.bias f4 [50]
-0.004511856 -0.11501298 -0.00886587 -0.027933354 0.041859142 -0.10706026 -0.071302064 -0.066371895
-0.058883097 0.07259541 -0.08302232 0.10435716 -0.028333131 -0.0005700564 -0.13483872 0.06750561
-0.07082497 0.07432889 -0.026531745 0.01147942 0.0051082093 -0.09558737 -0.09243539 0.09163371
0.13266012 -0.09397743 0.020174092 -0.059801623 0.097551756 -0.074217 0.04248316 0.055813514
0.02422731 0.042468887 -0.10863152 -0.04162624 -0.10191473 0.11766989 -0.039017465 0.09603387
-0.07043268 -0.09615417 0.006437842 0.11590669 0.099117175 0.1384631 0.091541745 -0.014642076
-0.033054747 -0.050920606
00000000: 31d8 93bb ed8b ebbd 2742 11bc 7dd4 e4bc
00000010: 7e74 2b3d 6942 dbbd d106 92bd fded 87bd
00000020: 672f 71bd e7ac 943d 9b07 aabd 35b9 d53d
00000030: e21a e8bc d66f 15ba 2913 0abe 6240 8a3d
00000040: af0c 91bd bf39 983d 1a59 d9bc 2d14 3c3c
00000050: c462 a73b 50c3 c3bd c44e bdbd 74aa bb3d
00000060: 0ed8 073e 3d77 c0bd 2344 a53c 8cf2 74bd
00000070: 37c9 c73d 15ff 97bd d202 2e3d b69c 643d
00000080: 5a78 c63c dbf3 2d3d 347a debd 4780 2abd
00000090: acb8 d0bd e9fc f03d c7d0 1fbd 68ad c43d
000000a0: 023f 90bd 7aec c4bd 88f4 d23b 7d60 ed3d
000000b0: f2fd ca3d 45c9 0d3e 3d7a bb3d 51e5 6fbc
000000c0: 6a64 07bd 2092 50bd

hidden_to_output.weight f4 [1, 50]
-0.05227869 0.12843882 0.117122315 0.024653414 -0.054422423 -0.12305964 -0.022795836 0.10874559
0.0612656 0.06259217 0.07639021 0.019148253 0.033230215 0.089969955 -0.015411444 -0.0018418726
-0.117085 -0.012281375 0.059116967 0.07825517 -0.014125475 -0.09224647 -0.047320634 -0.14031172
0.1000773 -0.075411774 -0.05750274 -0.053239696 0.0943517 -0.07807702 -0.12342763 0.08354201
-0.023024557 -0.121824965 0.054171365 -0.077386394 -0.0069947215 -0.021474442 0.041935764 -0.11261088
0.0400002 -0.116736785 0.072704144 -0.054295808 -0.12589271 0.110651314 0.05965776 -0.0059770513
0.015082368 0.09257676
00000000: 2e22 56bd 7785 033e d3dd ef3d f5f5 c93c
00000010: 0cea 5ebd b106 fcbd 55be babc 02b6 de3d
00000020: a3f1 7a3d 5330 803d 7872 9c3d ccdc 9c3c
00000030: 681c 083d 2b42 b83d 4880 7cbc fd6a f1ba
00000040: 43ca efbd d237 49bc a224 723d 3f44 a03d
00000050: 896e 67bc b8eb bcbd 48d3 41bd e0ad 0fbe
00000060: 54f5 cc3d 7d71 9abd fe87 6bbd de11 5abd
00000070: 773b c13d d8e6 9fbd a0c7 fcbd 1318 ab3d
00000080: ff9d bcbc 5e7f f9bd cbe2 5d3d c27c 9ebd
00000090: fa33 e5bb 2beb afbc d6c4 2b3d 88a0 e6bd
000000a0: 40d7 233d b213 efbd e9e5 943d 4865 5ebd
000000b0: 05ea 00be 289d e23d b25b 743d 24db c3bb
000000c0: 091c 773c e298 bd3d
